models/DLM_RC.pth (torch, 234174 bytes, 6 tensors)

stack_layers.1.weight f4 [128, 384]
000000 17 66 d1 3d 13 5b c1 3d e3 a2 c4 3d da 98 c2 bb
       0.1022455 0.09441199 0.09601381 -0.0059386315
000010 57 bf fb ba 18 c3 83 bd 2b 16 be 3c a7 0f e3 3c
       -0.0019206804 -0.064336956 0.02320393 0.027717425
000020 2b c2 6f 3d 40 1a cf 3c 2e 62 46 3d 20 cb 52 3d
       0.058534782 0.025281072 0.048433475 0.051463246
000030 37 77 22 3c ee af b7 3c ca 46 ad 3d f6 eb 07 3d
       0.009916118 0.022422757 0.084607676 0.033184014
000040 18 f1 73 3d 35 0c 4c 3d fb 2a a6 3d 82 18 d9 3c
       0.059556097 0.04981633 0.081136666 0.026500944
000050 36 f3 e1 3d 69 2a 76 3d fe 7b 38 ba a4 e1 b3 3b
       0.11032717 0.06009904 -0.0007037519 0.005489545
000060 d4 6b eb bc 36 4b bc bc d4 3e 4f 3b 1a 87 9e 3b
       -0.02873794 -0.022985082 0.0031623142 0.0048378827
000070 4e 13 5c 3c 4c ef 93 3d 5c 69 bd 3d 40 ae 50 3d
       0.013432337 0.07223377 0.09248611 0.050947428
000080 c3 08 22 3d 0e 55 e6 3d 2b 47 f4 3d 13 56 ac 3d
       0.039559137 0.11246692 0.11927637 0.08414855
000090 cf 57 39 3b 5a ff 32 3d 93 39 52 bb ee b0 b4 3c
       0.0028281098 0.043700553 -0.0032077774 0.022057023
0000a0 41 2b ad 3c e3 40 46 3c 27 30 f0 bc 88 fc 13 bd
       0.02113879 0.012100431 -0.029319836 -0.036129504
0000b0 22 00 dd bb ac e4 5d 3d 0c 87 a5 3c 2a 1e e1 bb
       -0.0067444006 0.054173157 0.020205997 -0.006870051
0000c0 d5 06 46 3c 45 c0 56 3d 90 2d 2f 3d 6a ef b3 3c
       0.01208659 0.052429456 0.04276806 0.021964747
0000d0 fc 93 63 3d 0f cc 17 3d c4 0f 38 bd 03 a7 26 bd
       0.05556105 0.03705984 -0.04493691 -0.04068662
0000e0 de 94 5e 3d 98 7d c3 bc 68 4e 23 bd b2 ae 0e bd
       0.05434119 -0.023863599 -0.039869696 -0.03483457
0000f0 42 ac 2d bc 25 5c a4 3c 9a 02 13 3d e7 29 a7 3d
       -0.0106001515 0.02006347 0.035891153 0.08162289
000100 94 04 c0 3d 35 90 0c 3e 7c 45 92 3d e7 ee 5c bb
       0.09375873 0.13726886 0.07142159 -0.0033711733
000110 51 37 fb bb 5d 9c da 3c 25 2b a4 3d 40 c2 ac 3d
       -0.0076665063 0.026685888 0.08016042 0.08435488
000120 ec 2a fe 3c bf 06 05 3d bb 1f 5c 3d 96 32 00 3e
       0.031026326 0.032477137 0.053741198 0.12519297
000130 e4 75 a3 3d ee ac 88 3d cb bd ce 3d 7e f4 c4 3d
       0.0798147 0.06673609 0.10094794 0.09616946
000140 19 df 09 3d 9d c7 92 3c 76 76 10 3b 76 c8 c9 bc
       0.033660028 0.017917449 0.0022043264 -0.02463172
000150 9a b6 62 3d 5a b7 07 3c a2 31 46 bc 49 44 d4 bc
       0.055349924 0.0082834605 -0.012096794 -0.025911467
000160 ae ec 5d 3c 2f ad 97 bc 34 7b 4b bd 2a 07 d2 3b
       0.013545198 -0.018515198 -0.049678043 0.0064095454
000170 88 34 1f 3c f3 e9 94 bc 11 3d 0b bd ca f6 05 3d
       0.009717114 -0.018177962 -0.033993784 0.03270606
000180 b7 aa 93 3d ca a4 0e 3e f3 76 9e 3d 46 8f 73 3d
       0.07210296 0.1393005 0.077375315 0.059462808
000190 34 62 c5 3d 06 47 87 3d 20 e3 b0 3d ed dd f2 3c
       0.096378714 0.066053435 0.08637071 0.029646838
0001a0 c9 6f 18 3e d8 be 09 3e 64 0b ee 3d af 73 b2 3d
       0.14886393 0.13451707 0.11623266 0.08713471
0001b0 c2 13 ae 3d c4 b0 3b 3d 5f dd 3c 3d 4c ea 5f 3d
       0.08499862 0.045822874 0.046109553 0.054666802
0001c0 07 1c 3d 3d e2 55 b5 3c df 81 48 bd c5 11 4c bd
       0.046169307 0.022135679 -0.04895198 -0.049821634
0001d0 b7 72 bd 3c 4a d7 7a bd b9 f9 f9 bc 74 57 8c bd
       0.02312599 -0.061240472 -0.030514585 -0.06852618
0001e0 f6 43 3b bd 82 1d c9 bc d3 42 91 bc 73 2e 24 3d
       -0.04571911 -0.024550203 -0.01773206 0.04008336
0001f0 0e 95 3d 3d 81 64 23 bc d0 1d 71 3d 62 fe a4 3d
       0.046284728 -0.0099726925 0.058866322 0.08056332
000200 03 68 d3 3c c0 fd 93 3d 8a 33 bb 3d 77 18 9d 3d
       0.025806433 0.07226133 0.0914069 0.07670682
000210 8a cb c9 3c cd e8 db 3d 7f 2c fc 3c 29 a7 04 3d
       0.024633188 0.107377626 0.030782936 0.03238598
000220 69 29 9c 3b a3 d0 e3 3c 78 93 19 3d 8e 1a 34 3d
       0.0047656787 0.027809447 0.037494153 0.043970637
000230 1b 06 ed bb 44 82 88 3d ef ec 8b 3d 23 8a 8c 3d
       -0.007233394 0.06665471 0.06832301 0.06862285
000240 15 af 34 3d 00 58 62 3d 5b 70 61 3d 96 30 d5 3d
       0.044112284 0.055259705 0.05503879 0.10409658
000250 d4 f8 7f 3d d4 71 41 3d af 17 93 3d 0a 55 99 3d
       0.06249316 0.047227696 0.07182252 0.07486923
000260 de 78 5a 3d 25 f6 a8 3d f4 6d 17 bc 41 01 07 3d
       0.053337924 0.08250073 -0.009242523 0.03296018
000270 28 40 6e 3d b6 7c 87 3d 56 22 69 3d 58 b3 0d bc
       0.058166653 0.066155836 0.05691751 -0.008648716
000280 95 f7 8e 3c b8 14 05 3c 49 0c 9d 3d 1e 0e 7d bb
       0.01745204 0.0081226155 0.07668359 -0.003861315
000290 ef 64 94 3b ec ce 82 3d 00 ed 91 3d 7a a1 9a 3d
       0.004528634 0.063871235 0.07125282 0.075503305
0002a0 0a 9a eb bb 5f 89 58 bd c2 9d 59 3d d3 0d 91 3d
       -0.0071899937 -0.052865382 0.053128965 0.07082715
0002b0 78 8c 82 3d 7f 51 56 3d 39 ed 73 3d e0 df 85 3d
       0.063744485 0.052323814 0.059552405 0.065368414
0002c0 bd dc 3f 3d 07 61 ce 3c dd 9e 42 3d 1d 0c 85 3d
       0.04684137 0.02519275 0.047514785 0.06496451
0002d0 f3 91 09 bd 51 8d 0f 3d aa 74 a1 bc 5e 93 60 bd
       -0.033586454 0.03504688 -0.01970895 -0.05482804
0002e0 b5 56 14 bc f4 42 26 bd 96 86 e3 bc 84 ae 0d 3d
       -0.009053876 -0.040591195 -0.027774137 0.03459026
0002f0 b1 09 6f 3d d9 74 61 3d c7 cc 7d 3c da 23 36 3d
       0.05835885 0.055043075 0.015490717 0.044467784
000300 28 72 5d 3d 07 ee 4b bb 87 06 1b 3d 41 12 2f bb
       0.054063946 -0.0031117217 0.03784802 -0.002671376
000310 77 91 3f 3d 3a 9a 5f 3d 6f 62 5b 3d 7b 60 5a bc
       0.046769585 0.05459044 0.05356067 -0.013328667
000320 b5 09 ad 3d 52 70 c7 3d cf 21 9e 3c 2a c7 fe 3c
       0.08449117 0.0973822 0.01930323 0.031100828
000330 00 07 c5 3d 8b ff 8b 3d 90 71 01 3e 48 b6 0c 3e
       0.09620476 0.0683585 0.12640977 0.1374141
000340 6a 43 9d 3d 3b bb be 3d a8 d0 1c 3d 9f 3d 56 3c
       0.07678874 0.09313055 0.038284928 0.013076215
000350 2c e2 83 3c 47 11 2b 3d f2 28 a9 3d d7 35 7c 3d
       0.016099058 0.041764524 0.08259763 0.061574783
000360 63 34 80 3c a1 eb ab 3d 63 41 e4 3c 94 34 37 3d
       0.01564998 0.08394552 0.02786321 0.044727877
000370 d3 8a 71 3d 0e 74 7c 3d b2 03 91 bb 51 a4 1f 3d
       0.058970284 0.061634116 -0.0044254893 0.038975064
000380 38 5b 00 3d a8 2c d4 3b 6e 86 c1 bb e8 4a 38 3d
       0.031336993 0.00647505 -0.005905918 0.04499331
000390 70 09 c0 3c 46 57 a4 3d 39 fb 0e bc 76 fd ad 3d
       0.023442 0.080244586 -0.008726888 0.084956095
0003a0 74 e1 e7 3c e6 61 61 3d 75 94 d8 3d 35 43 26 3d
       0.028305747 0.055025004 0.10575191 0.040591437
0003b0 03 e8 48 3d 6a bd 23 3d 86 90 05 bd 82 91 7d 3d
       0.04904939 0.03997556 -0.03260853 0.061906345
0003c0 6d 76 50 3d c8 15 22 3d 3b 06 be 3d 94 64 4f bc
       0.05089419 0.039571553 0.09278532 -0.012658257
0003d0 97 40 cc 3c 5b 19 7e 3d 08 0a c0 3b fc 1c b9 3c
       0.024933143 0.0620359 0.005860571 0.022596829
0003e0 a0 fa 33 3d 58 c1 a2 3d 8c 55 94 3d 7a 48 05 3d
       0.043940187 0.07947034 0.07242879 0.032539822
0003f0 2e 81 48 3d 1f b4 db 3d fe 2f 6a 3d 85 5c 83 3d
       0.04895132 0.10727715 0.057174675 0.06414131

stack_layers.1.bias f4 [128]
000000 0b 85 7b 3d a0 76 7d 3d c0 46 a7 3d 7a 22 64 3d
       0.061406177 0.061880708 0.08167791 0.055696942
000010 58 c0 7d 3d 66 55 03 3d 96 99 c9 3c 48 9f 08 bd
       0.06195101 0.032063864 0.024609368 -0.033355027
000020 b8 7f 82 3d 84 35 fd 3c 31 75 84 3b a6 79 48 3c
       0.06372017 0.030909307 0.0040422906 0.0122360345
000030 6d 82 13 3d e5 18 36 bd 85 6b 3b 3c a7 50 f8 bc
       0.036013056 -0.044457335 0.011439209 -0.030311896
000040 99 e4 86 ba dd 75 05 3d f3 89 ef 3b b4 10 3d 3d
       -0.0010291516 0.032583106 0.007310146 0.046158507
000050 ca a7 7e 3b 9b cc 39 bc ed 00 49 3d 33 6a 1c 3d
       0.0038857334 -0.011340286 0.04907315 0.038187217
000060 b9 06 2a bd 89 e6 96 bc 50 af 4d 3d 1f 0d 8d 3c
       -0.041510317 -0.018420475 0.05021602 0.01721817
000070 03 ea 69 3d 7e aa 4e 3d a2 1c 60 3d 3d 5d 8b 3d
       0.057107937 0.050455563 0.054714806 0.06804893
000080 ad 50 c0 bc 52 4f 3f 3c 23 4c 5c bc 2d 24 8a bc
       -0.02347597 0.011676626 -0.013445887 -0.016862953
000090 59 1c 23 3d 7e 42 b4 3d 16 e4 2e 3d d5 fd bc bc
       0.039821956 0.08801745 0.04269799 -0.023070255
0000a0 3e 24 1c bb a5 c3 05 3d 71 4a bf bb 8c d8 f5 3c
       -0.0023825313 0.032657284 -0.0058377315 0.030010484
0000b0 4a 01 34 bc 0f 9e c0 3c 0c 5a 8a 3c 45 b2 46 3d
       -0.010986635 0.023512868 0.01688864 0.048509855
0000c0 e6 a9 a8 ba f4 46 2b 3c 73 7d 33 bd a2 04 bf 3c
       -0.0012868016 0.010453928 -0.04382081 0.023317639
0000d0 63 49 cf 3c 16 71 e9 3b 73 d0 e1 bc 69 ab fc 3b
       0.025303548 0.0071240766 -0.027565217 0.0077108634
0000e0 81 5e 06 3d 80 08 59 3d c7 a1 80 3c a4 49 7e bc
       0.03280497 0.05298662 0.015702141 -0.015520487
0000f0 60 9e e9 3c e8 54 41 3d 89 8e 4a 3c e8 8d 30 3d
       0.028517902 0.047200114 0.012363085 0.043104082
000100 f0 50 59 3d 4c b6 ce 3c 48 fd 8a 3c f6 50 d0 3c
       0.053055704 0.02523341 0.016966477 0.02542923
000110 a5 12 2f 3c dd b3 cd bc 6a 7c 79 3b 65 6c 9b bb
       0.010685598 -0.02511018 0.0038068541 -0.0047431462
000120 ea 7d c1 3c a1 4e 34 bc 82 87 9c 3c 19 56 a0 bc
       0.02361961 -0.011005075 0.019107584 -0.019572305
000130 b0 e6 49 3d 14 e0 29 3d 16 9f f5 3b 68 24 43 3d
       0.049292266 0.041473463 0.007495771 0.04764214
000140 a6 79 78 3d f5 24 ec bc 27 f8 33 3d 20 86 83 3c
       0.060662888 -0.028826216 0.04393783 0.016055167
000150 ac da 87 bc f6 4a 6d 3d 0d 35 51 3d f2 d1 0f bd
       -0.016583763 0.057932816 0.051075984 -0.03511233
000160 40 19 84 bb 3e c8 71 3b aa c8 14 3d 47 b7 2c 3d
       -0.0040313303 0.0036893035 0.03632418 0.042166974
000170 df 8b 80 bc 45 43 3b 3c 52 4d 89 bc f5 88 b7 3c
       -0.015691696 0.0114296125 -0.016760502 0.022404173
000180 67 c1 a2 bb 0e a8 7f 3d f3 54 dc 3c b7 77 df 3d
       -0.004966903 0.06241613 0.026895976 0.10911506
000190 87 4f 3c 3c 9a 61 a4 3c 70 e3 c1 bc 77 36 c0 3d
       0.01149357 0.020066071 -0.023668021 0.09385388
0001a0 0a 08 a9 3d 5b b9 1e 3d 7d 7b 9b 3d 1c 82 e9 ba
       0.082534865 0.038750987 0.07591913 -0.0017815265
0001b0 bd fc de bc 62 a7 20 bd 7f d9 87 3c 5b 15 f2 3c
       -0.027220124 -0.03922213 0.016583202 0.029551199
0001c0 57 84 d1 3c 89 13 b2 3b 70 b7 92 3d d8 07 9f 3c
       0.0255758 0.0054344577 0.07163894 0.01941292
0001d0 79 2d 2a bc 5a 35 3f bb 66 24 68 ba 74 ee 90 3d
       -0.010386818 -0.0029176087 -0.00088555214 0.07076731
0001e0 13 5d 8b 3c 8c 7b 2a 39 c2 aa 1e 3d 05 22 40 3d
       0.017012155 0.00016258488 0.038737066 0.046907444
0001f0 67 91 1f bd 10 5b b8 3b 12 23 4a 3d e0 4a 8f 3d
       -0.038957026 0.00562609 0.049349852 0.06996703

stack_layers.3.weight f4 [64, 128]
000000 e3 21 8e bd a9 3a fa 3b ad 31 c5 be 03 de d5 3d
       -0.06940057 0.0076363874 -0.38514462 0.10442736
000010 cf 3a e0 3c 8b 4e e4 bd 28 7c 95 3c 5c dd 38 3c
       0.027371792 -0.111477934 0.018247679 0.011283245
000020 4a 89 d2 3c c8 db e9 bd 5a dd 48 3d f1 8b d1 3d
       0.02570023 -0.11418873 0.049039222 0.1023177
000030 fc 64 c9 3d dd 41 6b be 20 0d 87 bd 5a 37 1a 3d
       0.09833714 -0.22974344 -0.065943 0.037650444
000040 a4 ff ee bd 03 96 05 3c d7 7c 91 3c e2 56 17 bb
       -0.11669853 0.008153441 0.017759724 -0.0023092558
000050 d1 ff b1 bc 23 a2 e8 3d 5c d8 ef 3d c3 b1 82 3e
       -0.021728428 0.1135905 0.11711189 0.25526246
000060 53 a0 88 3d b3 b9 d2 3c ea 6d b7 3d af 8b 9e bc
       0.066712044 0.025723314 0.08956511 -0.019353716
000070 1f 70 33 3e 9f 77 2b be 62 75 85 bd 62 53 09 3e
       0.1752324 -0.1674485 -0.065165296 0.13410714
000080 7e 91 06 bd 9c d8 e2 3d 77 eb 2f bd 94 d0 65 3e
       -0.032853596 0.11076471 -0.042949166 0.22442847
000090 8f 7c f6 3d e2 88 87 be 89 16 9c 3d c8 85 cd ba
       0.120354764 -0.2647162 0.07621486 -0.0015680129
0000a0 ec 49 f1 3d e7 4c ec 3c 92 6b 87 bd f3 2e e7 bc
       0.117816776 0.028845264 -0.06612314 -0.02822063
0000b0 70 f0 4d 3d 3d e8 ac 3d 32 3a b2 bd 1c f1 1c be
       0.050278127 0.084427334 -0.08702506 -0.15326351
0000c0 79 dd 24 3d 29 d6 3a bd 13 0a 3f bd e4 4a 68 bd
       0.040250275 -0.045614395 -0.046640467 -0.056712046
0000d0 c7 28 11 3e b9 97 91 3d 43 97 9f bc 8e 3b c6 3d
       0.14175712 0.07109017 -0.019481307 0.09679328
0000e0 29 8c de 3c 7c ca 9b 3d 49 95 99 3c 02 4a 95 bd
       0.027166443 0.0760698 0.018747943 -0.072895065
0000f0 d0 dd a4 bb fa 06 c3 3c ed b9 ba 3d 6b 5c 52 3e
       -0.005031325 0.023807038 0.09117494 0.20543067
000100 31 95 e5 bd d5 d4 0a 3d 40 6b 46 3d ef 6b 51 bc
       -0.11210097 0.03389438 0.048442125 -0.012782081
000110 ba 5d d3 3d a3 5e cc 3c bb a9 7b bd 92 ad 49 3e
       0.10320611 0.02494747 -0.061441164 0.19695118
000120 02 c7 df bd e8 93 2b 3d 4c 90 ef bd 95 64 a2 3d
       -0.109266296 0.0418891 -0.11697444 0.07929341
000130 bc d4 f3 bd 96 ce 9d bd 18 e4 81 3d 11 b4 a4 3a
       -0.1190581 -0.07705419 0.063423336 0.0012565871
000140 75 4b c1 3d 5d 41 dc 3c 49 c0 35 3c 8e ed d6 3c
       0.094382204 0.026886636 0.011093208 0.026236322
000150 a4 19 6a bd 08 60 a5 3d 0c 3f c3 bc 29 b9 67 bd
       -0.05715336 0.08074957 -0.023833774 -0.056573067
000160 3f bd b0 bc 18 7a 17 bd c1 6a 97 3c 46 41 94 bd
       -0.021574615 -0.036981672 0.018483521 -0.072390124
000170 f6 5a 78 bd e3 2d 18 3c 04 2c 3a bd 4b fd cf 3d
       -0.060633622 0.009288284 -0.045452133 0.10155734
000180 d1 3d 46 3d 02 b4 3e bd 63 72 8a bd 1e 7f 3a be
       0.048398796 -0.046558388 -0.06760099 -0.18212554
000190 a5 6f e7 bd 39 7f 51 3d 61 a8 5b bd 4b b0 83 be
       -0.113005914 0.05114672 -0.053627376 -0.25720438
0001a0 a0 44 22 3e 08 1c ca be 72 56 4d 3d 23 3d 41 bd
       0.15846491 -0.3947451 0.05013127 -0.047177445
0001b0 de 0a 01 3c 0d 6e 6a bc 6e fb 0d 3e 62 55 65 3d
       0.007876126 -0.014308465 0.13865444 0.05598963
0001c0 17 65 40 3a bd 95 8d be 2c 8c c1 3c 73 45 87 3d
       0.00073392823 -0.27653304 0.02362641 0.06605043
0001d0 32 b9 ef 3d 45 81 86 3e bc 2c a5 bd 8b 9c 17 bd
       0.11705245 0.262705 -0.08065173 -0.037014525
0001e0 35 45 a8 3d c7 4e 66 bd 92 25 f8 bd 4c c2 a0 3e
       0.08216325 -0.05622747 -0.12116541 0.31398237
0001f0 7f 83 90 bd 82 16 22 bd 5a a3 9e bd 6d b5 ae bd
       -0.07056331 -0.039572246 -0.077460006 -0.08530698
000200 5a f3 54 3d 85 60 bf 3d 8a d0 11 be 2d 65 a0 bd
       0.05198989 0.093445815 -0.14239708 -0.07831798
000210 61 11 5c 3d c9 29 c0 3d 32 d3 32 bd a6 4f 0f 3d
       0.05372751 0.0938297 -0.043658443 0.034988068
000220 e0 97 34 3d 3f ff b7 be 88 bd 93 3d ac fe 0d 3c
       0.04409015 -0.35936925 0.072138846 0.008666676
000230 89 9e e5 3e 6e 61 36 be 01 78 81 bd 41 38 25 bb
       0.44847515 -0.17810604 -0.06321717 -0.0025210532
000240 4d 66 3d bd b7 a1 a2 bd 4a 03 50 3b 27 ce ca bc
       -0.04624014 -0.07941001 0.0031740242 -0.024756504
000250 cc 98 47 bc 7f b3 db 3d a2 7c 36 3d f5 4a 0e be
       -0.012182426 0.107275955 0.044552453 -0.13895781
000260 a8 11 ee be 63 f5 e8 3e 19 82 e0 bc 47 1e 2b bd
       -0.46497846 0.45499715 -0.027405785 -0.04177692
000270 f6 08 9e 3d 8c 45 98 be e8 0d b4 be bc 43 03 bd
       0.07716553 -0.2974056 -0.3516686 -0.03204702
000280 d2 cc 54 3d 73 2e ad 3d 3c 29 c9 bd 64 f4 86 be
       0.051953144 0.08456125 -0.09822318 -0.2635833
000290 50 fd b8 bd 3d 13 56 3e 0e 4b cb bc 54 1c 06 3e
       -0.090326905 0.20905776 -0.024816062 0.13096744
0002a0 f0 89 72 3d ea b0 bd 3e a7 26 86 be c9 32 ee bc
       0.05921358 0.37049037 -0.26201364 -0.02907695
0002b0 02 57 43 bd 66 b8 14 3d 53 12 07 3f 9b d9 48 3e
       -0.0476904 0.03630867 0.52762336 0.1961426
0002c0 4f d0 a6 bd 46 5d 81 bc 8c d6 cb 3d 72 13 49 bd
       -0.081452005 -0.015791547 0.09953031 -0.04909081
0002d0 57 89 b0 3c 87 7f 54 bc b2 73 08 be cc e6 7d 3d
       0.021549864 -0.012969858 -0.13325384 0.061987683
0002e0 ec 45 10 3e 1b fd 4b 3d 98 e3 a4 3d b2 fc 9e 3d
       0.14089173 0.049801927 0.080512226 0.077630416
0002f0 3a cc a0 bc 5a 52 8b 3d af f5 90 3d d3 e3 33 bd
       -0.019628633 0.06802817 0.070781104 -0.043918442
000300 28 4a 89 bd 38 c6 bc bc 18 a8 78 bd 9b f2 03 bd
       -0.06703597 -0.023043737 -0.06070718 -0.03221379
000310 36 9d 4c 3d ad 7a 8f be 6f bc b8 be 58 dc 24 3c
       0.049954616 -0.28023282 -0.36081263 0.0100623
000320 5c f9 24 be de 67 80 3d 55 90 04 3d 89 af 85 3a
       -0.16110748 0.06269811 0.03236421 0.0010199408
000330 1c 9b 95 3d 30 ac 93 be 31 4e ef 3c 5e 0e 88 be
       0.073049754 -0.28842306 0.02921209 -0.2657346
000340 af c2 c7 3d 3d 51 5f bd 7a 01 4f 3d bc cc 9a bd
       0.0975393 -0.054520834 0.050538518 -0.07558581
000350 6e 8e 92 bc be 98 df bd 0c a6 cd 3c c5 c4 84 bd
       -0.017890181 -0.10917805 0.025103591 -0.06482843
000360 90 46 7d 3d 3e de 15 bb 08 1b 08 3e b1 b6 df 3d
       0.06183487 -0.0022868062 0.13291562 0.109235175
000370 91 4f d9 3d 48 46 63 3b e3 08 f2 3a 1d 56 a3 bd
       0.10610879 0.0034679342 0.0018465783 -0.07975409
000380 46 74 4c bd a4 98 92 3d 7a 69 64 bd 2d 39 e1 3d
       -0.049915574 0.0715802 -0.055764653 0.109972335
000390 30 d2 4c 3d 47 8f 95 3d c5 93 ed 3e fc 89 04 be
       0.050005138 0.073027186 0.46401802 -0.12943262
0003a0 24 de 8c 3d 7a e5 63 be bc 16 e9 bc ed 60 b0 3c
       0.068783075 -0.22255507 -0.028453223 0.021530593
0003b0 84 03 a3 be c4 f7 e0 3b bd 59 5e 3e d3 2f 14 3d
       -0.3183862 0.0068654735 0.2171392 0.03617842
0003c0 1b b2 ea bd 5d d1 85 be 61 4f b0 bd c4 33 c4 3d
       -0.11459752 -0.26136294 -0.0860889 0.09580186
0003d0 ef be 40 bd cd ce 48 3e a7 51 3f 3d ce 13 b2 3c
       -0.04705709 0.19610138 0.04670873 0.02173796
0003e0 c8 97 4e bd 6f 11 ab be 4b 08 87 bd 08 a6 96 3d
       -0.05043772 -0.33411738 -0.06593379 0.07355887
0003f0 93 55 2b 3d f0 a8 c1 3d 66 64 ab be 2d 6f b2 3c
       0.041829657 0.094560504 -0.33475035 0.021781528

stack_layers.3.bias f4 [64]
000000 e1 21 71 3d b1 f1 df 3d 1c 34 c6 3c 7f 37 97 bd
       0.0588702 0.10934771 0.02419477 -0.07383632
000010 60 97 14 3c c8 c9 f6 bb c2 f2 b3 3b 58 6c 64 3d
       0.009069294 -0.0075313784 0.0054915855 0.055767387
000020 f6 f4 6a 3d 0c 67 56 3c f8 2b 08 bd 3d 33 11 bd
       0.05736252 0.013086092 -0.033245057 -0.035449255
000030 b9 6a 6a bd 8f 1a 84 bd 50 96 10 3d e5 68 69 3d
       -0.057230685 -0.06450378 0.0352996 0.0569848
000040 d1 79 e2 3c e6 1c a5 bc b8 c4 e6 3c 17 9a c5 bc
       0.027645977 -0.020155381 0.028169975 -0.024121327
000050 96 ab 86 3d 16 05 79 bd 06 51 d8 3d b8 7c b0 bb
       0.06575696 -0.060795866 0.10562329 -0.0053859614
000060 2b c1 98 3d fb d4 f6 bc 89 38 6e bd 0c 58 72 bd
       0.07458719 -0.030130854 -0.058159385 -0.059166
000070 52 ae 5d 3b bf e4 70 bd 9e 06 68 3c 4c 1f b4 3d
       0.0033825827 -0.0588119 0.014161734 0.08795032
000080 c7 92 9b 3c e1 e4 ce 3d e5 5c 21 bd d5 a2 c9 3d
       0.018990887 0.10102249 -0.03939523 0.09845511
000090 c7 8f fb 3c 8a 1c 61 bd 20 5c 91 3d 54 af a9 3d
       0.030708207 -0.054958858 0.070976496 0.08285394
0000a0 c6 26 06 bb be e7 60 3d 62 e1 a8 3d 6d 7b 9d bd
       -0.0020469888 0.054908507 0.08246113 -0.07689557
0000b0 13 c7 b4 3d 8d ca 5c 3d 08 46 0a 39 f2 20 d5 3c
       0.08827033 0.053904105 0.00013186794 0.026016686
0000c0 c6 72 5d 3d 67 7a aa b9 c2 75 66 3d 1f 19 95 bd
       0.054064535 -0.00032516124 0.056264646 -0.07280182
0000d0 c0 b8 cc 3d c4 2b a5 3d 21 95 5d 3d ee 8d 68 bc
       0.09996176 0.08064988 0.0540973 -0.014193995
0000e0 ea 0d c2 bc 6f 2d 8c bd 95 d3 f1 3d 59 2d bd bd
       -0.023688275 -0.06844603 0.11807934 -0.09237165
0000f0 2a ac 82 3c 7f a9 9d 3d 1b 6f 6e bd c6 60 6f 3d
       0.015951235 0.076983444 -0.058211427 0.0584419

stack_layers.5.weight f4 [6, 64]
000000 d8 c5 66 bd c6 23 fa bd 40 4a 08 b9 ba 9f 1a 3c
       -0.056341022 -0.122138545 -0.00012997631 0.009437496
000010 86 b5 bb be 7e 18 91 3d 61 8b e0 3d d9 1c bb be
       -0.3666193 0.0708475 0.109640844 -0.36545447
000020 fa 18 38 be 76 6a 36 bd cd 56 8f be 91 0f 03 be
       -0.17978278 -0.044535123 -0.2799591 -0.12798907
000030 80 29 25 bd 88 7f 4a 3d aa ec 0c be 7b ee fc 3d
       -0.04032278 0.04943803 -0.13762155 0.12350174
000040 7f 5d fa be 16 09 e8 bd 07 a9 0b bd a1 43 a1 bc
       -0.48899457 -0.11329858 -0.034096744 -0.019685568
000050 9a 01 ba 3d 3a fd 31 bd 2e b5 2b bd f8 25 06 3e
       0.09082337 -0.043454386 -0.041920833 0.13100421
000060 24 f4 1b 3e 44 81 dd 3c ee 78 6f 3d 7c 5f b3 bc
       0.15229851 0.027039178 0.058464937 -0.021896116
000070 16 51 99 3d 42 25 00 3e 42 f1 e5 bd a6 91 b9 bc
       0.07486169 0.12514213 -0.11227657 -0.022652458
000080 90 74 95 bc 02 c1 35 3e ae 45 8c 3d 5f bd 88 3d
       -0.018244058 0.17749408 0.06849228 0.06676745
000090 25 f3 29 3e 50 87 a3 be 86 63 82 3c ec f3 f5 3c
       0.16596659 -0.31939173 0.015916597 0.030023538
0000a0 f3 52 bf be df 87 99 bd 6a d9 79 3e 1e 2e c4 3d
       -0.37367973 -0.074966185 0.24399343 0.09579109
0000b0 23 70 91 be 7f 35 f5 3e 6d e7 8f 3d 06 25 68 3e
       -0.28405866 0.47892377 0.07026563 0.22670373
0000c0 b6 e9 bf 3c e2 21 0c 3e 1e ac 7f 3d b1 75 74 be
       0.023426872 0.136848 0.062420003 -0.2387302
0000d0 0c 5e 12 be 54 6c 7c 3a 14 01 92 3e 0f 19 12 bd
       -0.14293689 0.0009629179 0.28516448 -0.03566843
0000e0 f1 ea c3 be 95 06 03 be 68 3b fa 3d e7 44 75 bd
       -0.38265184 -0.1279548 0.12218362 -0.059880164
0000f0 2d 13 28 be 5f c7 f2 bd 5d 0f 9d 3e 89 03 88 3e
       -0.16413565 -0.11854433 0.30675784 0.26565197
000100 ce bb 28 be fe 2b 39 3c 7a 01 53 3e a7 0b b4 bd
       -0.16477892 0.011301992 0.20606032 -0.08791285
000110 7e f3 a1 be 00 36 2d bd 33 b7 a2 3d 95 d8 66 be
       -0.31631082 -0.042287827 0.07945099 -0.22543557
000120 12 10 3a 3c 04 4e f0 bd d6 65 aa 3d b5 a7 8b 3c
       0.0113563705 -0.1173363 0.08320205 0.017047742
000130 6c c8 64 3e 90 4e 8c bd f0 4f 54 bd c0 a4 89 be
       0.2234208 -0.06850922 -0.051834047 -0.26883507
000140 43 3d 16 3d 60 b4 b4 3b 8a b7 5f 3d c0 de 4d 3d
       0.036679517 0.0055146664 0.054618396 0.05026126
000150 e3 23 4c be 75 a5 0c 3e 9d b4 f5 bd 2e 1b 1c 3e
       -0.19935565 0.13734992 -0.1199734 0.15244743
000160 99 b8 87 be 1b a1 60 be c0 1e 9a be 37 70 b4 3e
       -0.26508024 -0.21936457 -0.30101585 0.35241863
000170 12 8f 16 be ff 52 f8 be 78 0d ed bd b3 09 5f bd
       -0.14703014 -0.4850082 -0.115748346 -0.05445261
000180 03 da 04 bd d9 d4 af 3e c2 6b aa 3d c2 68 17 be
       -0.032434475 0.34342077 0.083213344 -0.14786056
000190 00 f3 f6 3d 5e ad b5 3e 9c 7d fe bc e4 c7 2c 3e
       0.12058067 0.3548383 -0.031065755 0.16873127
0001a0 d6 c4 94 3d d6 a8 b9 3c cb 25 48 3e c3 b5 b8 3d
       0.07264106 0.022663515 0.19545667 0.09019043
0001b0 01 6a 97 3e f1 0e b3 be c3 94 99 3e 48 f9 30 be
       0.29573062 -0.34972337 0.2999631 -0.17282593
0001c0 51 6f e6 bd df 4a 5b 3e 69 c2 33 bd f7 13 f2 3d
       -0.11251701 0.2141528 -0.043886576 0.11820214
0001d0 d2 bf c9 3d 94 63 d1 bd 9e dd 56 3e 04 35 7a 3e
       0.0985104 -0.10224071 0.20982978 0.24434286
0001e0 ee ed 51 bd b5 4b 92 bd aa 2e c1 3e f7 91 38 bd
       -0.051252298 -0.07143346 0.37730914 -0.045061078
0001f0 09 ca 83 be e0 95 2e 3e 2c 39 10 bf ce 62 1f 3e
       -0.25740078 0.1704936 -0.5633724 0.15565035
000200 b6 56 3a 3e ca a7 e1 bd 38 17 cc bd f1 ad f4 bd
       0.1819714 -0.11018331 -0.09965366 -0.11947239
000210 2a 22 04 3f 00 fe ee bd 1c bb 91 3e fb 41 ba 3e
       0.5161463 -0.116695404 0.28463066 0.36378464
000220 05 2a a5 be 29 42 3a bd b5 9e 97 be a7 00 85 be
       -0.3225862 -0.04547325 -0.2961327 -0.2597706
000230 17 e3 3e be 3e b4 92 bc 86 a8 ce bc ac a4 f4 bd
       -0.18641315 -0.017908212 -0.025226843 -0.11945471
000240 4e 89 da bd 3e 33 91 3d 94 aa 88 bd d9 47 de bd
       -0.1067072 0.07089852 -0.0667316 -0.108535476
000250 84 34 02 bd d2 7e 9a 3e 5d 48 95 bd be b5 35 be
       -0.031788364 0.3017488 -0.07289193 -0.1774511
000260 05 7b 9b 3e d1 d8 14 3d f7 72 ac bd 53 dd 8a 3e
       0.30367294 0.036339585 -0.08420365 0.27121982
000270 69 ec 0a be 1f 24 b0 bd 35 4c ba bd 72 7b 09 bd
       -0.13566746 -0.086006396 -0.090965666 -0.033564992
000280 99 58 9b 3c c4 b4 1f 3e 18 27 3b bd 06 81 85 be
       0.018963145 0.155963 -0.04569158 -0.26075
000290 b1 d8 35 3e 14 75 c9 3e 73 7d 05 be dd 4b f2 be
       0.17758442 0.39347136 -0.13036136 -0.47323504
0002a0 32 bb f5 3e f8 f3 29 3e 16 46 0a 3e a0 5a c4 bd
       0.4799438 0.16596973 0.13503298 -0.09587598
0002b0 24 e0 e5 be 0a 5e 04 be fd f6 a9 3e 72 5e a5 3c
       -0.44897568 -0.12926498 0.3319625 0.020186637
0002c0 b6 fb 5c be 36 4e 31 3e e9 8e c6 bc 3e 44 65 be
       -0.21580395 0.17314991 -0.024238067 -0.22389314
0002d0 99 f1 bf 3c 90 88 5f 3d 99 11 f7 bc 41 12 6f be
       0.023430632 0.054573596 -0.030159758 -0.23346807
0002e0 c6 64 d3 3e 64 07 75 ba fc 7c 3e be ca 8e 07 be
       0.41287822 -0.00093471096 -0.18602365 -0.13238063
0002f0 82 db 40 be d9 50 a5 3d 2c 86 e3 be a4 0f 01 bf
       -0.18833736 0.08072061 -0.44438303 -0.5041449
000300 b4 54 e8 3d 01 ea aa 3e 05 16 85 be e9 89 88 bd
       0.11344281 0.33381656 -0.25993362 -0.06666929
000310 6c 8e 08 3e 53 97 5d bd 09 14 d8 bd c9 c8 03 3e
       0.1333558 -0.054099392 -0.105506964 0.12869562
000320 fa 88 44 3e 31 b7 44 3c 2e 53 3c 3e 47 12 57 3e
       0.19192877 0.012006567 0.18391106 0.21003066
000330 54 37 35 be 11 ec bf 3d d9 3e 1a be eb 25 4e 3e
       -0.17696887 0.09371198 -0.15063037 0.20131652
000340 27 ab 7c 3e 00 09 eb bc 33 fc 2a 3d 95 06 2a be
       0.24674664 -0.028690815 0.041744422 -0.16604073
000350 36 69 f2 bd 52 14 b5 be e7 48 58 3e 4e 3e a6 bd
       -0.11836474 -0.35367066 0.2112156 -0.081173524
000360 a1 e4 99 3d 28 e4 a6 3d dd 9a 4e be 37 db b2 be
       0.07514311 0.08148986 -0.20176263 -0.34932873
000370 cb a9 f5 3d 78 32 cd 3e 38 ee a1 3c 31 b4 fa bd
       0.11995276 0.40077567 0.019766912 -0.122414
000380 b9 61 55 3c f6 0b f8 be 65 9a ad 3d f6 d1 90 3e
       0.013023787 -0.48446625 0.08476714 0.28285187
000390 ed d2 76 3d d2 d9 cd be a5 6b 1c be e9 e1 e6 3c
       0.06025975 -0.40205246 -0.15275438 0.028183894
0003a0 9e 2b 85 bd ad 68 45 3e b5 bf 9c be 7a 7c e0 ba
       -0.0650246 0.19278212 -0.3061501 -0.0017126941
0003b0 3c ab b5 3d c2 37 bb 3d ee df 98 be e8 9b 24 3e
       0.08870551 0.09141494 -0.29858345 0.16075099
0003c0 d1 4e bb bc 55 2f 7a be a0 b7 af ba 34 ce a6 3c
       -0.022864731 -0.24432118 -0.0013406165 0.020361997
0003d0 f7 73 e3 3d 39 36 dc bd 61 fe aa be 53 66 5f 3e
       0.11106103 -0.1075253 -0.333972 0.21816377
0003e0 fa 0e 96 bc e7 f2 ad 3d 3f 2b 20 bd 0e e1 d4 bd
       -0.018317688 0.084935956 -0.039103743 -0.10394488
0003f0 a6 13 c1 3d f2 03 b3 be 5c d1 8f 3e 9d d8 42 3e
       0.09427576 -0.34963948 0.28089416 0.19027944

stack_layers.5.bias f4 [6]
000000 90 0d 81 bb 83 1f ac 3d 5b 37 8e 3d cd 6f cc 3d
       -0.0039383844 0.08404448 0.06944152 0.09982262
000010 6f cf f1 3d 75 a8 2b bd
       0.11807143 -0.0419087
